…
   "id": "b960ad5c-89c9-4fef-b3f0-163380739d09",
   "metadata": {},
   "source": [
    "# Total number of parameters "
   ]
  },
  {
   "cell_type": "code",
   "execution_count": 31,
   "id": "3e1c513e-e139-4011-b8df-d8ff0455e8c8",
   "metadata": {},
   "outputs": [
    {
     "name": "stdout",
     "output_type": "stream",
     "text": [
      "----------------------------------------------------------------\n",
      "        Layer (type)               Output Shape         Param #\n",
      "================================================================\n",
      "            Conv2d-1           [-1, 32, 28, 28]             320\n",
      "              ReLU-2           [-1, 32, 28, 28]               0\n",
      "            Conv2d-3           [-1, 32, 14, 14]           9,248\n",
      "              ReLU-4           [-1, 32, 14, 14]               0\n",
      "            Linear-5                  [-1, 500]         784,500\n",
      "              ReLU-6                  [-1, 500]               0\n",
      "            Linear-7                   [-1, 10]           5,010\n",
      "================================================================\n",
      "Total params: 799,078\n",
      "Trainable params: 799,078\n",
      "Non-trainable params: 0\n",
      "----------------------------------------------------------------\n",
      "Input size (MB): 0.00\n",
      "Forward/backward pass size (MB): 0.49\n",
      "Params size (MB): 3.05\n",
      "Estimated Total Size (MB): 3.54\n",
…
